{"keras_version": "2.2.4", "backend": "tensorflow", "config": {"name": "sequential_1", "layers": [{"config": {"batch_input_shape": [null, 2500], "dtype": "float32", "name": "embedding_1", "input_length": 2500, "embeddings_constraint": null, "output_dim": 300, "embeddings_initializer": {"config": {"maxval": 0.05, "seed": null, "minval": -0.05}, "class_name": "RandomUniform"}, "input_dim": 630, "embeddings_regularizer": null, "mask_zero": false, "trainable": true, "activity_regularizer": null}, "class_name": "Embedding"}, {"config": {"padding": "valid", "name": "conv1d_1", "strides": [1], "filters": 128, "data_format": "channels_last", "kernel_constraint": null, "kernel_regularizer": null, "dilation_rate": [1], "bias_constraint": null, "trainable": true, "activity_regularizer": null, "kernel_initializer": {"config": {"mode": "fan_avg", "seed": null, "distribution": "uniform", "scale": 1.0}, "class_name": "VarianceScaling"}, "bias_initializer": {"config": {}, "class_name": "Zeros"}, "bias_regularizer": null, "kernel_size": [6], "use_bias": true, "activation": "relu"}, "class_name": "Conv1D"}, {"config": {"noise_shape": null, "name": "dropout_1", "trainable": true, "seed": null, "rate": 0.2}, "class_name": "Dropout"}, {"config": {"padding": "valid", "name": "conv1d_2", "strides": [1], "filters": 128, "data_format": "channels_last", "kernel_constraint": null, "kernel_regularizer": null, "dilation_rate": [1], "bias_constraint": null, "trainable": true, "activity_regularizer": null, "kernel_initializer": {"config": {"mode": "fan_avg", "seed": null, "distribution": "uniform", "scale": 1.0}, "class_name": "VarianceScaling"}, "bias_initializer": {"config": {}, "class_name": "Zeros"}, "bias_regularizer": null, "kernel_size": [6], "use_bias": true, "activation": "relu"}, "class_name": "Conv1D"}, {"config": {"padding": "valid", "name": "max_pooling1d_1", "strides": [5], "data_format": "channels_last", "trainable": true, "pool_size": [5]}, "class_name": "MaxPooling1D"}, {"config": {"name": "lstm_1", "kernel_constraint": null, "bias_regularizer": null, "return_sequences": false, "recurrent_dropout": 0.2, "trainable": true, "activity_regularizer": null, "kernel_initializer": {"config": {"mode": "fan_avg", "seed": null, "distribution": "uniform", "scale": 1.0}, "class_name": "VarianceScaling"}, "implementation": 1, "recurrent_regularizer": null, "recurrent_activation": "hard_sigmoid", "dropout": 0.2, "unit_forget_bias": true, "use_bias": true, "kernel_regularizer": null, "recurrent_constraint": null, "unroll": false, "bias_constraint": null, "stateful": false, "bias_initializer": {"config": {}, "class_name": "Zeros"}, "recurrent_initializer": {"config": {"gain": 1.0, "seed": null}, "class_name": "Orthogonal"}, "activation": "tanh", "go_backwards": false, "return_state": false, "units": 100}, "class_name": "LSTM"}, {"config": {"name": "dense_1", "bias_regularizer": null, "use_bias": true, "kernel_constraint": null, "kernel_regularizer": null, "bias_constraint": null, "trainable": true, "activity_regularizer": null, "kernel_initializer": {"config": {"mode": "fan_avg", "seed": null, "distribution": "uniform", "scale": 1.0}, "class_name": "VarianceScaling"}, "bias_initializer": {"config": {}, "class_name": "Zeros"}, "units": 2, "activation": "softmax"}, "class_name": "Dense"}]}, "class_name": "Sequential"}