{"config": {"layers": [{"config": {"input_dim": 629, "embeddings_constraint": null, "input_length": 2500, "mask_zero": false, "output_dim": 300, "name": "embedding_1", "activity_regularizer": null, "embeddings_initializer": {"config": {"maxval": 0.05, "minval": -0.05, "seed": null}, "class_name": "RandomUniform"}, "batch_input_shape": [null, 2500], "embeddings_regularizer": null, "dtype": "float32", "trainable": true}, "class_name": "Embedding"}, {"config": {"kernel_regularizer": null, "trainable": true, "data_format": "channels_last", "filters": 128, "bias_regularizer": null, "name": "conv1d_1", "padding": "valid", "activity_regularizer": null, "activation": "relu", "kernel_constraint": null, "kernel_initializer": {"config": {"distribution": "uniform", "scale": 1.0, "mode": "fan_avg", "seed": null}, "class_name": "VarianceScaling"}, "bias_constraint": null, "dilation_rate": [1], "use_bias": true, "kernel_size": [6], "strides": [1], "bias_initializer": {"config": {}, "class_name": "Zeros"}}, "class_name": "Conv1D"}, {"config": {"rate": 0.2, "noise_shape": null, "name": "dropout_1", "seed": null, "trainable": true}, "class_name": "Dropout"}, {"config": {"kernel_regularizer": null, "trainable": true, "data_format": "channels_last", "filters": 128, "bias_regularizer": null, "name": "conv1d_2", "padding": "valid", "activity_regularizer": null, "activation": "relu", "kernel_constraint": null, "kernel_initializer": {"config": {"distribution": "uniform", "scale": 1.0, "mode": "fan_avg", "seed": null}, "class_name": "VarianceScaling"}, "bias_constraint": null, "dilation_rate": [1], "use_bias": true, "kernel_size": [6], "strides": [1], "bias_initializer": {"config": {}, "class_name": "Zeros"}}, "class_name": "Conv1D"}, {"config": {"data_format": "channels_last", "pool_size": [5], "name": "max_pooling1d_1", "padding": "valid", "strides": [5], "trainable": true}, "class_name": "MaxPooling1D"}, {"config": {"units": 100, "kernel_constraint": null, "unroll": false, "implementation": 1, "recurrent_dropout": 0.2, "bias_regularizer": null, "recurrent_constraint": null, "go_backwards": false, "dropout": 0.2, "return_state": false, "stateful": false, "recurrent_initializer": {"config": {"gain": 1.0, "seed": null}, "class_name": "Orthogonal"}, "use_bias": true, "activation": "tanh", "kernel_regularizer": null, "unit_forget_bias": true, "name": "lstm_1", "activity_regularizer": null, "recurrent_activation": "hard_sigmoid", "recurrent_regularizer": null, "kernel_initializer": {"config": {"distribution": "uniform", "scale": 1.0, "mode": "fan_avg", "seed": null}, "class_name": "VarianceScaling"}, "bias_constraint": null, "return_sequences": false, "trainable": true, "bias_initializer": {"config": {}, "class_name": "Zeros"}}, "class_name": "LSTM"}, {"config": {"kernel_regularizer": null, "units": 2, "kernel_constraint": null, "bias_regularizer": null, "name": "dense_1", "activity_regularizer": null, "kernel_initializer": {"config": {"distribution": "uniform", "scale": 1.0, "mode": "fan_avg", "seed": null}, "class_name": "VarianceScaling"}, "bias_constraint": null, "trainable": true, "activation": "linear", "use_bias": true, "bias_initializer": {"config": {}, "class_name": "Zeros"}}, "class_name": "Dense"}, {"config": {"name": "activation_1", "activation": "softmax", "trainable": true}, "class_name": "Activation"}], "name": "sequential_1"}, "class_name": "Sequential", "keras_version": "2.2.4", "backend": "tensorflow"}